…
422           20.812799  ...             0.3395
423           19.692301  ...             1.3361
424           20.309299  ...             0.5013
425           16.587400  ...             1.4155
426           25.047501  ...             0.5623

[427 rows x 16304 columns]
Number of features:  (16304,)
UnimodalSurvivalTrainer, initilise data
UnimodalSurvivalTrainer, initilise data
MultiMaeForSurvival(
  (model): MultiMAEModel(
    (encoders): ModuleDict(
      (rna): UnimodalEncoder(
        (encoder): RnaMAEModel(
          (embeddings): RnaMAEEmbeddings(
            (patch_embeddings): RnaTMAEPatchEmbeddings(
              (projection): Conv1d(1, 256, kernel_size=(512,), stride=(512,))
            )
          )
          (encoder): ViTMAEEncoder(
            (layer): ModuleList(
              (0-3): 4 x ViTMAELayer(
                (attention): ViTMAESdpaAttention(
                  (attention): ViTMAESdpaSelfAttention(
                    (query): Linear(in_features=256, out_features=256, bias=True)
                    (key): Linear(in_features=256, out_features=256, bias=True)
                    (value): Linear(in_features=256, out_features=256, bias=True)
                    (dropout): Dropout(p=0.0, inplace=False)
                  )
                  (output): ViTMAESelfOutput(
                    (dense): Linear(in_features=256, out_features=256, bias=True)
                    (dropout): Dropout(p=0.0, inplace=False)
                  )
                )
                (intermediate): ViTMAEIntermediate(
                  (dense): Linear(in_features=256, out_features=1024, bias=True)
                  (intermediate_act_fn): GELUActivation()
                )
                (output): ViTMAEOutput(
                  (dense): Linear(in_features=1024, out_features=256, bias=True)
                  (dropout): Dropout(p=0.0, inplace=False)
                )
                (layernorm_before): LayerNorm((256,), eps=1e-12, elementwise_affine=True)
                (layernorm_after): LayerNorm((256,), eps=1e-12, elementwise_affine=True)
              )
            )
          )
          (layernorm): LayerNorm((256,), eps=1e-12, elementwise_affine=True)
        )
      )
    )
  )
  (fusion_strategy): Identity()
  (projection): Linear(in_features=256, out_features=20, bias=True)
)
  0%|          | 0/50 [00:00<?, ?it/s]Train...
{'rna': tensor(1.0652, device='cuda:0')}
Torch_all: mask
Torch_all: mask
Mask shape:  torch.Size([24, 64])
Last_hidden_state shape:  torch.Size([24, 65, 256])
{'rna': tensor(1.0606, device='cuda:0')}
Torch_all: mask
Torch_all: mask
Mask shape:  torch.Size([24, 64])
Last_hidden_state shape:  torch.Size([24, 65, 256])
…
3             11.434100  ...             0.6442
4             31.898399  ...             0.4383
..                  ...  ...                ...
422           20.812799  ...             0.3395
423           19.692301  ...             1.3361
424           20.309299  ...             0.5013
425           16.587400  ...             1.4155
426           25.047501  ...             0.5623

[427 rows x 16304 columns]
Number of features:  (16304,)
UnimodalSurvivalTrainer, initilise data
RnaSurvivalModel(
  (vit): RnaMAEModel(
    (embeddings): RnaMAEEmbeddings(
      (patch_embeddings): RnaTMAEPatchEmbeddings(
        (projection): Conv1d(1, 256, kernel_size=(256,), stride=(256,))
      )
    )
    (encoder): ViTMAEEncoder(
      (layer): ModuleList(
        (0-3): 4 x ViTMAELayer(
          (attention): ViTMAESdpaAttention(
            (attention): ViTMAESdpaSelfAttention(
              (query): Linear(in_features=256, out_features=256, bias=True)
              (key): Linear(in_features=256, out_features=256, bias=True)
              (value): Linear(in_features=256, out_features=256, bias=True)
              (dropout): Dropout(p=0.0, inplace=False)
            )
            (output): ViTMAESelfOutput(
              (dense): Linear(in_features=256, out_features=256, bias=True)
              (dropout): Dropout(p=0.0, inplace=False)
            )
          )
          (intermediate): ViTMAEIntermediate(
            (dense): Linear(in_features=256, out_features=1024, bias=True)
            (intermediate_act_fn): GELUActivation()
          )
          (output): ViTMAEOutput(
            (dense): Linear(in_features=1024, out_features=256, bias=True)
            (dropout): Dropout(p=0.0, inplace=False)
          )
          (layernorm_before): LayerNorm((256,), eps=1e-12, elementwise_affine=True)
          (layernorm_after): LayerNorm((256,), eps=1e-12, elementwise_affine=True)
        )
      )
    )
    (layernorm): LayerNorm((256,), eps=1e-12, elementwise_affine=True)
  )
  (projection): Linear(in_features=256, out_features=20, bias=True)
)
Total number of parameters : 3230740
--ViT: 3225600
----Embeddings: 66048
------Patch embeddings: 65792
------Position embeddings: 16640
------Class token: 256
----Encoder: 3159040
----Layer norm: 512
  0%|          | 0/50 [00:00<?, ?it/s]  2%|▏         | 1/50 [00:04<04:00,  4.91s/it]  4%|▍         | 2/50 [00:06<02:24,  3.01s/it]  6%|▌         | 3
…
